initialized_model.pth (torch, 118124 bytes, 6 tensors)

layer1.0.weight f4 [32, 25, 3, 3]
000000 9a e2 c5 3c 49 5e ef 3c 34 2a 6f bd 34 d3 9f 3a
       0.024155904 0.029219763 -0.058389857 0.0012193681
000010 c5 c6 60 3c bd 4c fe bc 12 73 2f bc da fc da bc
       0.013719265 -0.031042451 -0.010708587 -0.026731897
000020 96 ba 2c 3d 23 2e 80 3a df 0b 5d bc bc f8 9c bb
       0.04217013 0.0009779375 -0.0134916 -0.0047903936
000030 f0 7b 6a bd 70 9e c4 3c 81 d3 42 bd f2 64 7a 3d
       -0.057247102 0.02400133 -0.047564987 0.061131425
000040 5e 51 12 3d f0 ee 62 39 27 ab 58 3d 49 f1 83 bc
       0.03572213 0.0002164205 0.0528976 -0.016106265
000050 d2 04 90 3c ab 90 e1 3c 7d 3f 6e 3d 45 e4 e3 ba
       0.017580424 0.027534803 0.058166016 -0.0017386755
000060 bd e9 72 bc b8 6d 6a 3d 67 f2 a8 3a 12 a9 fe bb
       -0.014826235 0.057233542 0.0012889624 -0.0077716196
000070 78 87 d6 3c 74 3c 1a 3d 89 df cb bc bc 2e 13 bd
       0.026187643 0.03765531 -0.024886863 -0.03593324
000080 56 d3 df 3c c5 a3 6c bc 56 76 32 3d 01 7c 26 bb
       0.027322453 -0.014443343 0.043569885 -0.0025403502
000090 70 e4 33 3d bc 11 92 bc 67 a6 76 3d d2 ac d2 3c
       0.043919027 -0.017830722 0.060217287 0.025717173
0000a0 bc 7c a9 bb cd 3b 04 3d 67 18 86 3b 9f ea cf 3c
       -0.00517234 0.032283593 0.0040922645 0.02538043
0000b0 fa 24 6e 3d b0 55 43 bd 9c 8a 0e 3d e3 fb 74 3d
       0.058140732 -0.04768914 0.034800157 0.05981053
0000c0 52 26 ad 3c 23 64 8e bc 9a da a6 bc bc fe cd bc
       0.021136437 -0.017381733 -0.02036791 -0.02514588
0000d0 b4 07 1c 3c ae b0 53 bd 67 78 00 3d d2 71 29 3d
       0.009523321 -0.051682167 0.031364825 0.041368313
0000e0 c5 f6 81 3d 18 90 0a 3d f8 c2 bf 3c 50 1d 82 3d
       0.06345896 0.033828825 0.023408398 0.06353247
0000f0 f6 d5 3a 3d 9a 39 5b 3d b4 ef 1e bd 45 76 bf 3b
       0.045614205 0.05352173 -0.038802817 0.0058429562
000100 74 fc 03 3d 6f 2f 02 bd e3 69 4d bd 78 a0 eb bb
       0.03222318 -0.031783517 -0.05014981 -0.00719076
000110 c1 e7 18 bd 01 e2 21 bd 87 51 61 bd 1a 08 45 bd
       -0.037330393 -0.039522175 -0.05500939 -0.04810343
000120 7c 6f 0e 3d 56 1f 7a bd bd 60 ef 3c 96 15 a0 3c
       0.03477429 -0.06106504 0.029220933 0.019541543
000130 8b 29 71 bd 12 1c 87 3d 34 88 3c bd 89 75 cd 3c
       -0.05887751 0.06597151 -0.04602833 0.02508046
000140 ba 72 6e 3d c3 ab 06 3d 03 dd 86 3d 65 02 2d 3d
       0.05821488 0.03287865 0.065851234 0.04223861
000150 87 5a 7c 3d e3 dd 64 3d eb 20 aa bc c5 60 98 3c
       0.06160977 0.05587567 -0.02076765 0.01860083
000160 ce 79 5c bc 3e 27 2a 3d d4 d0 03 3d 56 ba 7b 3c
       -0.013456775 0.04154133 0.032181576 0.01536425
000170 6b 70 af bc d8 f6 87 3d df 1a eb 3c 2b fa 23 3c
       -0.02141591 0.066388786 0.028699337 0.010008375
000180 c1 c8 65 bd c5 f9 70 3d 47 3a 06 3d 92 0f 8b 3c
       -0.056099657 0.05883195 0.03277042 0.016975198
000190 1d 70 81 3d 35 83 85 3d 67 1a c3 3c f4 2a 94 3c
       0.06320212 0.065191664 0.0238163 0.018086888
0001a0 f8 83 7d 3d 16 e1 6d 3d bf 34 49 bd e7 c2 36 3c
       0.061893433 0.058075987 -0.04912257 0.011154867
0001b0 df 3c ed 3c 78 f8 b7 bb 6c 8a 80 bd 8b 04 21 3d
       0.02895969 -0.0056143366 -0.06276402 0.039310973
0001c0 f0 02 eb 3c cd b8 8e 3c a3 e4 48 bc 34 1c 59 3c
       0.028687924 0.017422104 -0.0122615425 0.013251353
0001d0 78 8d ee 3c 9a a1 44 3b 6e 91 63 bd b4 3f 7c bc
       0.029120192 0.0030003549 -0.055558614 -0.015396047
0001e0 b0 c1 ad bc de 76 b0 3b 56 d1 f2 3a 22 2c 85 3d
       -0.021210521 0.005385264 0.0018525522 0.06502558
0001f0 a9 7b 1b 3d 38 dd 1a bd da 30 e1 3c f8 d2 6c 3c
       0.03795973 -0.037808627 0.027489115 0.014454596
000200 65 b7 11 bd 12 49 f7 3b 50 c5 31 3d 1d bd 75 3d
       -0.03557529 0.0075465525 0.043401062 0.059994806
000210 f4 a0 1d 3d 1a c3 47 bd 3d 67 f8 bc 2b 92 14 3d
       0.038483575 -0.048770048 -0.030322665 0.03627221
000220 34 73 aa 39 63 a1 71 bd ee 71 62 bd 54 cf 24 3d
       0.0003251076 -0.0589918 -0.055284433 0.040236786
000230 2b 40 a5 bc 8d 85 83 3d cd 62 1a bc 52 c0 82 3d
       -0.0201722 0.06421957 -0.00942297 0.063843384
000240 56 a8 3a bc 62 68 81 bd 6d a1 82 bd d6 78 76 bd
       -0.0113926735 -0.063187376 -0.06378446 -0.060173832
000250 2c 66 ff 3c de b7 1c bb 45 79 54 3c 2e 9f 87 bd
       0.031176649 -0.0023913304 0.012968366 -0.06622158
000260 3e 52 08 bd b6 07 0a bd df 29 5d 3b 38 f5 5e 3d
       -0.033281557 -0.03369876 0.003374688 0.054433078
000270 ee 9d 87 bd 56 c3 4d 3b 09 70 33 3d ad 30 04 bd
       -0.066219196 0.0031396947 0.043808017 -0.032272983
000280 58 ac 0d bd 96 36 20 bd 56 d2 37 bd 67 8d e2 bc
       -0.034588188 -0.039114557 -0.044878326 -0.027655317
000290 da ee 1e 3d f2 aa 11 bd e7 cb cc bc e1 5d 53 3d
       0.038802005 -0.035563417 -0.024999572 0.0516032
0002a0 ed a2 32 3d 9a 1b 2d bb 78 3e f6 3b 23 80 7c 3b
       0.04361241 -0.0026414157 0.007514771 0.0038528524
0002b0 2b 3f a6 bc f8 83 f2 bc 2b cd 2f 3d 34 2a 0c bc
       -0.020293793 -0.029603943 0.042920273 -0.008554984
0002c0 ab 27 52 bc ab 32 4c 3b 9a 19 69 b9 f8 d0 0f 3d
       -0.01282684 0.003115813 -0.00022230149 0.035111398
0002d0 45 f0 17 bb 56 8a 20 3c 34 12 cc 3b d6 22 dd 3c
       -0.0023183983 0.009798607 0.006227756 0.02699415
0002e0 1f 9e 73 bd 56 c3 22 3b 18 42 7c 3d 56 64 6b bd
       -0.059476968 0.0024835668 0.06158647 -0.057468735
0002f0 01 64 4b bc d2 b8 f5 3c e5 0a 6d 3d 72 d8 12 bd
       -0.0124139795 0.029995356 0.057871718 -0.03585095
000300 9a 6d 49 bb 41 59 32 bd 05 1c 43 bd 7c 13 3e 3d
       -0.0030735494 -0.04354215 -0.047634143 0.0464053
000310 01 10 e0 3c 78 3d d0 bc bc 13 25 bd c5 d2 bf 3c
       0.027351381 -0.025419936 -0.040302023 0.023415932
000320 c9 a1 59 3d f5 af 81 bd b2 df 15 3d 63 1e b0 3c
       0.053132806 -0.06332389 0.036590286 0.021498865
000330 34 04 1e bd e1 2b 43 3d a3 ba 4f 3d 27 d4 9c 3c
       -0.038578227 0.047649268 0.0507151 0.01914413
000340 00 b2 87 bc 35 b5 87 bd 90 a5 4a bd 8e b8 75 bd
       -0.01656437 -0.066263594 -0.0494743 -0.05999046
000350 5f b5 57 3c d8 90 5c bd 8b 80 0c bd 94 3d 16 bd
       0.013165801 -0.05384907 -0.034302276 -0.03667982
000360 ad 6b 87 bd ee b8 6c bd 34 8a f2 3b 32 bd 73 3d
       -0.066123344 -0.05779355 0.007401729 0.059506603
000370 5f 29 69 bc cd 51 bb 3c df 2d 6a bd a5 a0 02 bd
       -0.014231055 0.022866154 -0.057172652 -0.031891484
000380 70 53 e3 3c 34 f8 c2 bb 34 63 a5 bc cd 46 18 3c
       0.027749747 -0.0059499983 -0.020188905 0.009294224
000390 ab 9f ef 3b 1f 55 cf 3c 78 30 91 bc 4e cb f4 bc
       0.007312735 0.025309144 -0.017723307 -0.0298821
0003a0 c5 9b d9 3c 10 bf 6c bd 23 4b 3c bd 34 81 b0 3b
       0.026563535 -0.0577994 -0.045970093 0.005386496
0003b0 89 c6 e5 bc c9 7d 72 3d de d5 0e bd 2c 72 7a bd
       -0.02804877 0.05920199 -0.03487193 -0.06114404
0003c0 d5 e3 86 3d cd 83 04 bc cd 4e 83 3d 30 a3 d9 3c
       0.06586424 -0.008088064 0.064115144 0.026567072
0003d0 6e 8c 70 bd ce 8d f0 3c 43 26 74 3d e1 47 49 3d
       -0.058727674 0.029364493 0.0596068 0.049140815
0003e0 a5 ff 7a 3d 7e d6 09 bd f0 cb 82 bd e5 62 47 3d
       0.061278958 -0.03365182 -0.06386554 0.048678298
0003f0 2b 66 28 3d 34 9f 1d 3c 16 6b a4 bc df bf 70 bb
       0.04111306 0.0096204765 -0.020070594 -0.0036735458

layer1.0.bias f4 [32]
000000 80 a2 8d 3c eb 82 e5 bc a3 69 c7 bc 9a 95 58 3b
       0.0172894 -0.028016528 -0.024342364 0.0033048154
000010 cd 04 09 3a 54 9b 27 bd 23 15 9d bc f4 47 bf 3c
       0.00052268506 -0.040919617 -0.019175118 0.02334974
000020 6f 3f 25 3d 89 dc a0 3a d4 92 70 bd f2 d9 41 bd
       0.040343698 0.0012272756 -0.058733776 -0.04732699
000030 52 e0 ee bc ad 90 2a bd f0 65 d1 bb 96 54 85 bc
       -0.029159699 -0.04164188 -0.0063903257 -0.016275685
000040 cd 09 2e bd 96 33 d3 3c 45 37 b3 3c f0 69 d4 3c
       -0.042489816 0.025781434 0.02187694 0.025929421
000050 0f dd 18 3d 58 83 65 3d 2d 17 29 bd d6 2b e5 3c
       0.037320193 0.056033462 -0.041281868 0.027975004
000060 c3 1e 6b 3d ef 27 90 3c 67 76 0a 3c 70 71 2d 3c
       0.057402384 0.017597167 0.008451081 0.010586128
000070 c9 b2 ae bc f0 be 44 bb 38 37 6a bd f2 0b 7e 3d
       -0.021325486 -0.0030021034 -0.057181567 0.06202311

layer2.0.weight f4 [64, 32, 3, 3]
000000 78 02 35 bd 2c 85 2d 3d 9b 71 de 3b f7 d7 52 3d
       -0.044191808 0.04236333 0.006788445 0.05147549
000010 09 59 83 3c d5 d3 2e 3d c4 a5 1c bd d6 ec 38 bd
       0.016033666 0.042682488 -0.038244024 -0.04514774
000020 83 03 db 3c cc 08 13 bc 2f 65 a3 bc 67 46 39 3d
       0.026735073 -0.008974265 -0.019945709 0.045233157
000030 0b af 8d ba e8 4f c4 bb da 42 3c 3d 02 ba 2c bd
       -0.0010809613 -0.005990971 0.045962192 -0.04216958
000040 4f b8 b7 3c 8d a2 1f bd 3d ab 99 3b 85 25 a7 bc
       0.022426752 -0.03897338 0.0046896026 -0.020403633
000050 1a a0 6d bc 9c 49 cf bc 5e 36 81 bc 95 17 de 3c
       -0.014503503 -0.025303654 -0.015772995 0.027110854
000060 24 1c 55 bd 93 9e 62 3c 7e 6b ad 3c ec 88 66 bd
       -0.05202879 0.013831752 0.02116942 -0.056282923
000070 b8 8d 51 3d 84 ed 74 ba db 6c 3f 3d 04 4c c4 3b
       0.051160544 -0.0009343254 0.046734672 0.005990507
000080 45 89 ed 3c db a8 1e bd e2 a9 fa 3c 2d cc 4d bd
       0.02899612 -0.038735252 0.030598585 -0.050243545
000090 23 c8 ff bc 1b 76 02 bd 2b 8e 6a bd ef 0a 47 bd
       -0.031223362 -0.031850915 -0.05726449 -0.04859441
0000a0 7c 66 ec bc 9f ce 65 3d c8 a1 5f 3c 44 bb a7 3c
       -0.028857462 0.056105252 0.0136494115 0.020475037
0000b0 05 6d 46 3c 48 23 03 3d 48 0d 5f 3d aa 3a 36 3b
       0.012110953 0.03201607 0.054456025 0.0027805963
0000c0 8c 6f 2b bd 25 03 9d 3c 6d 07 a7 3c 6d b9 35 bd
       -0.041854426 0.019166538 0.020389283 -0.04436629
0000d0 be 7f 6f bd 86 22 cd bb f0 6d 6e bd 56 03 19 3d
       -0.058471434 -0.006260219 -0.058210313 0.037356697
0000e0 8c 85 db 3b 6f 63 6a bd 5c 25 54 bd 10 5a 09 3c
       0.0066992696 -0.057223734 -0.05179344 0.008383289
0000f0 42 0f 2c bd 7d 16 81 3c 14 4f 16 3d 5d c4 40 bc
       -0.04200674 0.015757794 0.03669651 -0.011765567
000100 e7 b2 86 3c 22 03 24 bd 69 b9 44 3d 34 90 64 3d
       0.01644273 -0.04004205 0.048028383 0.055801585
000110 a4 50 47 bd 77 45 68 bc ed 59 8e 3b 01 04 22 bd
       -0.04866089 -0.014176718 0.004344216 -0.0395546
000120 ff 69 be 3b 16 5b 75 bc fb ae 36 bc 00 27 15 bd
       0.0058109756 -0.01497533 -0.011150117 -0.036414146
000130 19 30 69 3d 89 a8 ce 3c 59 8b 1b bd ec 72 9a bc
       0.056930635 0.025226848 -0.03797469 -0.018853627
000140 c1 11 51 bd 71 a4 4f bd d3 66 12 3d b4 5c 62 3d
       -0.051042322 -0.050693933 0.035742592 0.05526419
000150 cb d5 f8 3c 83 ac 3b bd f6 72 c8 bc c1 39 6d 3d
       0.030375382 -0.045818817 -0.02446888 0.057916407
000160 85 d2 f8 3c c1 d5 ca bc 74 06 93 3c 2e e3 f0 bc
       0.030373821 -0.024760129 0.017947413 -0.029405203
000170 1e 35 0a bc bf 7a 3e 3d a6 23 64 3d 1a 08 34 bd
       -0.008435516 0.04650378 0.05569806 -0.04395304
000180 0e 8e 4d bd 5a 61 fe bc 3b f9 87 3c 12 8d df bc
       -0.050184302 -0.03105228 0.016598335 -0.027288947
000190 fe 57 3c 3c 20 08 95 3c d1 4f e6 3c 7c 58 80 3c
       0.011495588 0.01819235 0.028114231 0.015667193
0001a0 52 f2 68 3d 55 f1 e0 bc ae 1f 00 3c 7d 06 2e bd
       0.05687172 -0.027458826 0.007820053 -0.042486656
0001b0 5e 33 64 3d 2b 91 87 bc 2a f0 48 bc 9e 91 2d 3c
       0.05571305 -0.016548714 -0.012264291 0.0105938
0001c0 e5 a8 69 bd ea fe 85 bc bd 1c 98 3c 6a 85 ef 3c
       -0.057045836 -0.016356904 0.018568391 0.029238421
0001d0 29 2a 43 bb d3 a4 44 bd 5d d5 b1 bb b0 2c c6 bc
       -0.0029779768 -0.04800875 -0.005427046 -0.02419123
0001e0 94 11 60 bd 31 78 72 3a d7 01 03 bd eb 1d 11 bc
       -0.054704264 0.00092494773 -0.031984176 -0.008857231
0001f0 07 a3 3d bd 9f 4c 0c 3d 02 61 58 bd a6 73 fd ba
       -0.046298053 0.03425276 -0.05282689 -0.0019336834
000200 8a ed 1d 3a 77 9d 3d 3d 26 20 6e 3c 7e 9d 84 3b
       0.0006024471 0.04629275 0.014534032 0.004047095
000210 bf dc c8 3c 88 e3 f6 3c b1 be f1 bc 7d e2 63 3c
       0.024519322 0.030137792 -0.029509874 0.0139089795
000220 65 8a 1c bc 55 ce 22 3d c7 63 47 3d 4e a6 05 bc
       -0.00955448 0.039747555 0.04867914 -0.008157326
000230 41 9f b9 3c 88 0e b8 bc ac 10 14 bd fe b5 5f bd
       0.022658946 -0.022467867 -0.036148712 -0.05461692
000240 d4 97 e8 bc cc 7e cb bb 0e 7e dd bc 10 27 28 bd
       -0.02839271 -0.0062101837 -0.027037647 -0.041052878
000250 11 fc ad 3c ff f9 0d 3c a9 53 20 3b 3e 8e 90 bc
       0.021238359 0.008665561 0.0024463928 -0.017645951
000260 b5 8e 63 bd fa d6 66 3d 27 ec 62 bd 33 91 8e 3b
       -0.055556018 0.05635736 -0.055400994 0.004350805
000270 5d 07 6c bd b7 09 88 3b b7 97 14 3d 48 3b 0c 3d
       -0.05762421 0.0041515487 0.0362775 0.034236223
000280 74 ff f1 3c de 55 22 3d 70 1c c5 3b 88 c5 65 bd
       0.029540755 0.03963267 0.006015353 -0.056096584
000290 99 da bb 3c a9 ef 2b bd a0 06 89 3a be b9 35 bd
       0.022931384 -0.041976605 0.0010454245 -0.04436659
0002a0 b3 73 15 3d d6 10 3a bb 75 e7 8a 3c 52 41 52 3b
       0.036487292 -0.0028391383 0.01695607 0.003208239
0002b0 12 93 e8 3c 16 b0 d9 3c 79 b0 45 bd 8c 35 49 bd
       0.028390441 0.026573222 -0.048264 -0.049123332
0002c0 06 a7 49 3d 1c c5 56 bd 3f eb 19 3d e6 e7 50 bd
       0.04923155 -0.052434072 0.037577864 -0.051002406
0002d0 da b0 05 bd 34 0c b7 ba ff 20 26 3d f7 65 08 bc
       -0.032639362 -0.0013965429 0.04055881 -0.008325092
0002e0 04 77 66 bc 93 4f 96 3a ed 98 bb 3c 45 c7 30 3d
       -0.0140664615 0.0011467807 0.02290007 0.04315879
0002f0 f9 8c 2f 3d 41 ce 3b 3d 97 d6 3a 3b ac 62 a7 bc
       0.04285905 0.045850996 0.0028509253 -0.020432793
000300 fd 11 0f bd 5d 2a 41 3c f0 c9 de bc 89 4f 24 3d
       -0.034929264 0.011789885 -0.0271959 0.040114913
000310 45 6e f5 bc 9b ae 55 bd ca bb 5c bd 34 6b bd bc
       -0.029959807 -0.05216847 -0.053890027 -0.023122407
000320 dc be e6 bc 78 44 37 3d 9f 6c 3f bc b5 4f 28 3d
       -0.02816718 0.04474303 -0.011683612 0.04109164
000330 15 e0 5c bd 2e 8e 32 3d bd d8 47 bd 0b e2 00 3c
       -0.05392464 0.043592624 -0.048790682 0.007866393
000340 f8 d9 24 bd c7 a2 16 bb be b0 97 3c 34 54 27 3c
       -0.040246934 -0.0022985206 0.018516894 0.010212947
000350 7c 4f 28 bd 27 38 a6 3b d6 d7 2e 3d 12 d2 b6 3c
       -0.041091427 0.005072612 0.042686306 0.022316966
000360 97 3a 2f bc a1 2f 48 bd 40 44 a7 3c 34 4f 01 3d
       -0.010695121 -0.048873547 0.020418286 0.031569675
000370 6b c2 07 bd 13 e3 6e 3d fe 61 a6 3a c0 6c 36 3c
       -0.033144396 0.058322024 0.0012693999 0.011134326
000380 17 16 0f 3d 15 8e 3a 3c 24 81 48 bd a4 bf ca bc
       0.034933176 0.011386414 -0.048951283 -0.024749584
000390 01 83 a5 3c 54 d9 64 3d 37 40 28 bd cf 14 88 bc
       0.02020407 0.055871323 -0.041076865 -0.016611485
0003a0 42 92 f6 3c 4c 16 05 bd d9 7f 54 3c 83 ed 0a 3d
       0.030099038 -0.032491967 0.012969934 0.033917915
0003b0 6b d2 1a bd 89 e0 23 bd 29 9e 3b 3d 37 58 b0 bc
       -0.037798326 -0.040009055 0.04580513 -0.02152644
0003c0 28 b1 ea bb 44 f1 41 ba 0a f7 78 bc 72 5f 24 3d
       -0.007162232 -0.0007398317 -0.015195617 0.040130086
0003d0 38 cf cd bc 6b 13 c3 3a 19 f4 ae 3c 8c 0a c3 3c
       -0.025123224 0.0014883106 0.02135663 0.02380874
0003e0 0d 45 14 3c 29 3a 2b 3d 97 de 03 3d 72 43 37 bc
       0.009049666 0.041803513 0.0321947 -0.011185514
0003f0 2e 0a 4e bd 60 c8 3f 3d d4 be 03 bd f8 aa 5d bd
       -0.050302677 0.046821952 -0.03216441 -0.054118127

layer2.0.bias f4 [64]
000000 cf 9f 9a 3c 1f ae 11 3d a9 ad 81 bb 50 fd 07 bd
       0.01887503 0.035566445 -0.0039574695 -0.033200562
000010 27 4f 1a bd 53 e0 19 3d 78 52 6e bb 6c 58 29 3d
       -0.03767314 0.037567448 -0.0036365073 0.04134409
000020 3b 9e 73 3b a1 2b 96 3c dc 15 46 3d ed 83 07 bd
       0.003717317 0.01833135 0.04836069 -0.0330848
000030 35 5b a9 bc 3d 43 3b bd 10 b5 2d bc e1 f5 d6 34
       -0.020673374 -0.04571842 -0.010602251 4.0039507e-07
000040 7a b7 52 bd 46 6f 08 3d 2a 15 4a bd 01 3f b3 bc
       -0.051444508 0.033309244 -0.04933659 -0.021880629
000050 9b 15 39 3d 86 a2 1d 3d 3b 2e 7b bc b4 69 1b 3d
       0.04518662 0.038485073 -0.015330846 0.037942603
000060 16 81 71 3c e0 1f 02 3d 40 f1 46 bd 10 5b 05 3d
       0.014740249 0.03176868 -0.048569918 0.032557547
000070 3a c6 7a 3a a9 78 0f 3b 42 db 60 3d b4 49 6e 3d
       0.0009566281 0.0021891987 0.0548966 0.058175758
000080 33 32 88 bb 80 f8 97 bc e5 ba 34 bd 04 86 41 bd
       -0.004156375 -0.018551111 -0.04412355 -0.047246948
000090 ac db 6b 3c 69 8e 63 3d b0 06 57 bd cf 51 07 bd
       0.014395636 0.055555735 -0.052496612 -0.033037003
0000a0 6c 24 38 3d 0f 7a c0 bc ec 3b 58 bd 19 59 21 3d
       0.04495661 -0.023495702 -0.05279152 0.03939161
0000b0 e0 e9 34 3d 38 d0 03 3d 36 b4 c3 bc db 91 3b bd
       0.044168353 0.032180995 -0.023889642 -0.045793395
0000c0 5d 92 61 3d 72 ff 63 3d e2 59 26 bd c2 1e 4d bd
       0.055071224 0.055663534 -0.040613063 -0.05007816
0000d0 d4 24 0b 3d 71 c1 a2 bb 03 13 9c bc 69 2d c7 bb
       0.03397067 -0.0049669077 -0.019052034 -0.0060784114
0000e0 fa 85 39 3c 42 5b 8a bc 54 27 60 bd 2d e4 ae bc
       0.011323446 -0.016889218 -0.054725006 -0.021349037
0000f0 48 0c 4e ba 5b e5 c3 bc 6a 2b 28 bd bf dc a6 3c
       -0.00078601064 -0.023913076 -0.041057028 0.020368932

fc.weight f4 [3, 1024]
000000 96 28 f7 3c ac d2 65 bc 40 6c 46 bb 86 af a8 bc
       0.03017072 -0.014027279 -0.0030276924 -0.020591509
000010 f2 ab a5 bc 88 b4 bd bc 82 3e d1 3c 84 cf 03 3c
       -0.020223591 -0.023157373 0.025542501 0.008045081
000020 1e f0 f5 3c 44 a9 30 bc 34 b2 f8 bc 34 5d 4d 3c
       0.030021723 -0.010782544 -0.030358411 0.012534428
000030 ac c8 76 bc 00 d2 30 bb f8 34 82 3b 60 25 b3 3c
       -0.015062492 -0.0026980639 0.0039735995 0.021868408
000040 ca 8d f4 bc dc 98 39 bc a0 d3 5a bc bc 9b 43 bc
       -0.029852767 -0.011327948 -0.013356119 -0.011938985
000050 36 17 9e 3c 00 68 f2 ba 28 9b ce 3b da 30 e0 3c
       0.019298177 -0.0018494129 0.006305117 0.027367044
000060 5a 89 fc 3c 5a f3 95 bc d8 a2 2c bc f8 6c c2 bb
       0.030827213 -0.018304516 -0.010536872 -0.0059334002
000070 fa a5 b7 3c b8 fb 2a 3c 24 0f c9 bc 80 bc 3c bc
       0.022418011 0.010435991 -0.024543352 -0.011519551
000080 78 b2 08 bc f0 aa 10 3b 48 51 b1 bb 80 71 4e bb
       -0.0083433315 0.0022074543 -0.005411301 -0.0031500757
000090 88 fd 67 bc a0 79 9a ba e0 30 a7 3b e0 ec 4b bc
       -0.014159568 -0.0011785515 0.005102262 -0.012446612
0000a0 c0 57 a4 bc e0 3b 50 bb d8 85 d0 bc a8 a5 90 3c
       -0.020061374 -0.003177397 -0.025454447 0.017657116
0000b0 38 b1 97 3c 08 37 fd bc 66 93 80 bc 80 7c 13 bb
       0.018517122 -0.03091003 -0.015695285 -0.0022504628
0000c0 98 4c 97 3b f6 b5 d1 3c 90 32 97 3c 0e e9 eb bc
       0.004617285 0.025599461 0.018456727 -0.028797653
0000d0 b4 c2 7d 3c 8e 10 ba 3c 5e 18 f1 bc c4 23 f0 3c
       0.015488315 0.022712972 -0.029430564 0.02931393
0000e0 c0 42 cc 3c 40 19 ce ba 00 78 a2 3a 88 e4 14 bc
       0.024934173 -0.0015724078 0.0012395382 -0.009087689
0000f0 8e 35 e6 bc 2a 55 e5 3c c0 1d 98 ba d0 a0 1c bb
       -0.028101709 0.027994711 -0.0011605546 -0.0023899563
000100 c0 33 4e ba 90 6f 23 3c 36 40 da 3c 2c 3c a8 3c
       -0.0007865988 0.009975329 0.026641946 0.020536505
000110 28 ec ad bb 68 e1 1b 3c de 38 da bc 6e c7 ce bc
       -0.005307693 0.00951419 -0.026638445 -0.02524158
000120 fa 8b b3 3c a4 f2 c0 bc 92 77 fb 3c 00 20 ac b6
       0.021917332 -0.0235532 0.030696664 -5.1297247e-06
000130 5e 5f eb 3c 9c cb 0a bc c4 e8 58 3c 00 30 6f b8
       0.028731998 -0.008471396 0.013239089 -5.7026744e-05
000140 16 6f af bc 54 8f 74 bc 40 6a 94 3b 08 68 8e 3c
       -0.021415275 -0.01492675 0.0045292675 0.01738359
000150 e0 70 2e 3b de bd d8 bc f2 f4 af 3c b8 83 e0 bc
       0.0026617572 -0.026457723 0.021479104 -0.027406558
000160 c8 a3 f4 3b a8 e6 44 bc 7c b8 4a bc 22 95 a2 bc
       0.0074658133 -0.012017883 -0.012373086 -0.019846503
000170 c0 27 e2 3a f4 2d 4a 3c 00 ad 8e ba 28 58 62 bc
       0.0017254278 0.012340058 -0.0010885298 -0.013814963
000180 c8 e5 27 3c 98 ff b9 bb 86 5e e1 3c ec df 4a 3c
       0.010247655 -0.005676221 0.027510893 0.012382489
000190 04 b4 8b bc 34 0e 18 bc 28 b9 3e 3c 7e 10 e5 3c
       -0.017053612 -0.00928073 0.011640824 0.027961966
0001a0 10 75 d6 3c d0 fe bc 3b aa cd ec bc 94 a3 42 3c
       0.026178867 0.0057676807 -0.028906662 0.01187982
0001b0 8c 10 45 3c 68 1f d2 3c d4 7b 45 bc 0c 16 61 3c
       0.012027871 0.025649741 -0.012053449 0.013738167
0001c0 5a d7 c1 bc 4e b3 fd bc f0 87 b1 bc 28 b7 e0 3c
       -0.023662258 -0.030969288 -0.021671265 0.027431086
0001d0 a0 1e 8c bc 20 fe a8 bb 0c 99 43 3c 0e 85 fa bc
       -0.017104447 -0.005157247 0.011938345 -0.030581024
0001e0 90 a1 4d 3c d8 54 a4 bc f2 6b f6 bc b0 e2 45 3c
       0.0125507265 -0.020059988 -0.03008077 0.012077972
0001f0 b0 2e 19 bb b0 32 22 3b 8c f8 ab bc 00 23 00 3a
       -0.0023373775 0.002474945 -0.02099254 0.0004888028
000200 84 13 6b bc ce b5 da bc 40 76 49 bb 7e aa df 3c
       -0.014347915 -0.02669802 -0.0030740649 0.027302977
000210 e6 29 94 3c ec 60 ae bc 20 7d 41 bc 5c b8 0d 3c
       0.018086385 -0.02128645 -0.011809617 0.008649912
000220 c0 7e 73 3a 78 3b 87 3c 1c e1 b0 bc 60 e8 6b 3b
       0.00092886016 0.01650785 -0.021591716 0.003599666
000230 98 92 d6 bb d8 32 b0 bc 02 58 96 3c 3a 94 f0 bc
       -0.006548237 -0.02150862 0.018352512 -0.029367555
000240 f8 e4 3b bc a0 29 b6 bb 7a 0a d3 3c 14 db 3d 3c
       -0.011468165 -0.0055591613 0.025761832 0.011587877
000250 dc c4 cf 3c ea 10 b6 bc 26 4f ef bc be 61 f3 3c
       0.025362425 -0.022224862 -0.029212546 0.029709693
000260 d8 c1 b0 bc 14 9c b4 3c bc 46 00 bc 68 6a 64 bc
       -0.021576807 0.02204708 -0.007829364 -0.013941385
000270 1c 06 aa 3c 58 c3 26 bc b2 fd d1 bc 90 37 6f 3b
       0.020754866 -0.0101784095 -0.025633667 0.0036501624
000280 00 00 a0 b8 0e 5f b4 3c 9c 9a b2 3c c0 ff df 3a
       -7.6293945e-05 0.022017982 0.02180224 0.0017089769
000290 e0 30 fe ba e8 2f 70 bc 48 c0 76 3c 40 eb 2e bc
       -0.0019393228 -0.014659859 0.015060492 -0.010676205
0002a0 10 88 85 bc 16 4d bd bc c8 6c e0 bb a8 42 d5 3c
       -0.016300231 -0.023108047 -0.0068489052 0.02603276
0002b0 00 73 fa bc 68 ba 7b 3c e0 7a 5d bc 4c f8 8d bc
       -0.030572414 0.015364267 -0.013518065 -0.017330311
0002c0 4c bd 33 bc 10 6d 13 bc e8 0d ad bc 00 3d 63 39
       -0.010970425 -0.0089981705 -0.021124795 0.00021671131
0002d0 5e c5 dc bc 80 7e 4c 3a 30 ef 1e 3b 4e 8f f9 bc
       -0.02694958 0.00078008324 0.0024251454 -0.03046384
0002e0 32 46 b1 3c 20 66 8a 3c 4e ae ed bc 02 7d c5 3c
       0.021639917 0.0168944 -0.029013779 0.02410746
0002f0 d6 1e df bc 5c c3 40 bc 82 72 a7 bc 28 db f7 3b
       -0.027236383 -0.011765327 -0.020440344 0.0075639673
000300 a4 fe a2 bc c8 5e 8d 3b 22 d1 f1 3c 32 3f a1 3c
       -0.019896813 0.0043142773 0.029518668 0.019683454
000310 54 5e 64 bc 8c 2b cd bc c0 8d 48 3a 18 52 e7 bb
       -0.013938505 -0.025045179 0.0007650517 -0.007059347
000320 1e 2c d0 bc 04 87 51 bc fc 98 ca bc c0 14 b6 bc
       -0.025411662 -0.012788538 -0.024731152 -0.022226691
000330 c0 35 c6 3c 30 24 07 bb dc fb fd 3c 30 15 08 3b
       0.024195552 -0.0020620935 0.031003885 0.0020764582
000340 72 43 cb bc 46 e4 f5 3c a4 82 e9 3c 54 0b 48 3c
       -0.024812434 0.030016076 0.028504677 0.012209732
000350 00 21 b7 3b c0 bb 79 bb e4 ff 6a 3c c0 5e af bb
       0.0055886507 -0.0038106292 0.014343236 -0.0053518713
000360 98 61 0d bc 78 b6 c3 bb 08 ae 91 3c 2c a7 c6 3c
       -0.008629225 -0.0059726797 0.01778318 0.024249636
000370 86 39 fc 3c 40 98 70 ba 00 36 71 ba 70 b1 c6 bb
       0.030789148 -0.00091779605 -0.0009201467 -0.0060636327
000380 9a 1a f6 3c c0 0d 7c bb a0 b0 c1 bc 80 1f 1e 3a
       0.030041981 -0.0038460344 -0.023643792 0.00060319155
000390 80 4b f3 39 3e e1 c7 bc f4 83 4c 3c f6 0c f8 bc
       0.00046404824 -0.024399396 0.012482632 -0.030279618
0003a0 de 6d 81 bc a0 44 3b bb b0 ba c4 bb b4 19 d4 bc
       -0.01579946 -0.002857484 -0.0060037 -0.025891162
0003b0 10 fa b7 bb 58 b6 67 bc b6 88 99 bc d0 3d da 3c
       -0.0056145266 -0.014142595 -0.018741947 0.026640803
0003c0 22 fd a8 bc 2c 84 4e 3c 88 0a 75 bc 48 26 d7 bc
       -0.020628516 0.012604754 -0.014956124 -0.026263371
0003d0 20 d3 fe 3b 50 18 9a 3c 8c 27 f0 3c 00 1d 7d 3b
       0.007776633 0.018810421 0.029315732 0.0038622022
0003e0 2e b8 84 3c 88 10 fd 3b fc 92 ff bc 58 13 bf 3c
       0.016201105 0.007722918 -0.031198017 0.023324654
0003f0 d0 82 50 bc a2 64 d7 3c 7a 6c d3 bc ae 45 c9 bc
       -0.012726501 0.026293103 -0.025808562 -0.024569359

fc.bias f4 [3]
000000 6c fe 1d 3c c0 35 39 ba 68 42 29 3c
       0.009643178 -0.00070651993 0.010330774
